models/realtime.tflite (tflite, 269168 bytes, 26 tensors)

arith.constant f4 [1, 1, 128]
00000000: a340 8b3f 320d 8e3f 6cb3 833f debd 823f
00000010: e614 883f 763b 8a3f fdf3 8b3f 5090 893f
00000020: 86a0 803f c7f2 873f af11 933f 39fb 883f
00000030: 6217 853f e483 8c3f 1dce 893f d13e 8d3f
00000040: 35a9 7f3f 5c36 8f3f 0bd0 803f 3f1a 893f
00000050: 9d4f 843f b909 893f 7eaf 893f 7f1d 863f
00000060: f1e5 853f e519 873f ff1f 843f 60bd 8c3f
00000070: 70af 883f 7729 803f 1ddb 843f 494a 953f
00000080: 030d 843f 6480 8b3f 4493 893f c4cb 873f
00000090: e033 8e3f da4c 863f 4a25 883f 65fb 873f
000000a0: 91b3 853f 63b4 8e3f 1941 883f 9286 843f
000000b0: 0878 893f a69b 893f 6356 8a3f 98e7 853f
000000c0: 601b 813f a437 8d3f 368d 833f 5ef6 8d3f
000000d0: 108f 883f 4e8d 8c3f 58ee 923f 5142 893f
000000e0: 7e47 8f3f 499b 8a3f 071d 8d3f bcf8 843f
000000f0: 5294 873f 3b85 883f 87c9 8a3f ec66 8c3f
00000100: 4429 893f 9b51 823f afaa 883f f562 8f3f
00000110: 01af 853f 966b 833f 2087 863f f18b 883f
00000120: 8443 873f 2ede 813f 8411 883f 526a 8b3f
00000130: e3c8 893f cba6 923f 3715 843f 601b 863f
00000140: 3d9e 903f e16c 813f 88eb 813f c73a 833f
00000150: 9421 833f 3aec 873f 6e8c 853f d601 853f
00000160: 278a 893f ffce 8d3f 1f99 863f d719 883f
00000170: b2f3 813f 7f0d 893f b9f4 853f be00 8c3f
00000180: 6e8f 8b3f 26fd 883f 31ca 833f bcca 823f
00000190: 58b6 893f dbba 923f d41b 8d3f df0c 863f
000001a0: 5a50 873f 1514 873f 9b1f 833f 76c8 813f
000001b0: 15f8 8c3f 3869 833f d081 8e3f f3f1 8d3f
000001c0: da7a 833f bb03 873f 1c69 883f 914c 833f
000001d0: 0e3d 893f d72b 823f 3ad5 8b3f 9380 863f
000001e0: bc8e 853f 7045 823f ed7c 893f 0ad7 813f
000001f0: 199c 843f 6cfe 873f 39e3 843f dbce 883f
1.08791 1.1097777 1.028913 1.0214193 1.0631378 1.0799396 1.0933834 1.0747166
1.0048988 1.0620965 1.1489772 1.0701667 1.0397761 1.097775 1.0766026 1.1034795
0.99867564 1.1188464 1.006349 1.0711135 1.0336796 1.0706092 1.0756681 1.0477751
1.0460798 1.0554777 1.0322264 1.0995293 1.0678539 1.0012654 1.0379368 1.1663295
1.0316471 1.0898557 1.0748067 1.0609059 1.1109581 1.0492203 1.063638 1.0623595
1.0445424 1.11488 1.0644866 1.0353568 1.0739756 1.0750625 1.0807613 1.0461302
1.0086479 1.1032605 1.0277469 1.109081 1.0668659 1.0980623 1.1478987 1.0723363
1.1193693 1.0828639 1.1024483 1.0388408 1.0592139 1.0665659 1.0842751 1.0968909
1.0715718 1.0181154 1.0677088 1.1202074 1.0444032 1.0267208 1.0509987 1.0667707
1.0567479 1.0145929 1.0630345 1.0891821 1.0764431 1.1457151 1.0318974 1.0477104
1.129829 1.0111352 1.0150003 1.0252312 1.0244622 1.0618966 1.0433481 1.0391185
1.0745286 1.1078795 1.0515479 1.0632886 1.0152495 1.0707244 1.0465308 1.0937726
1.0903146 1.0702255 1.0296079 1.021812 1.0758772 1.1463274 1.1024117 1.0472678
1.0571396 1.0553004 1.024402 1.0139301 1.1013209 1.0266485 1.1133366 1.1089462
1.0271866 1.0548013 1.0657077 1.0257741 1.0721757 1.0169629 1.0924447 1.0507988
1.0434184 1.0177441 1.0741249 1.014375 1.0360137 1.0624518 1.0381843 1.0688127

arith.constant1 f4 [1, 1, 128]
00000000: 0e78 8ebb 275d 683b 8e85 8e3b c46e 923b
00000010: 2bb3 c93b 2ab8 a9bc 8626 05bc e84f ecbc
00000020: c553 4a3c 221b 09bc 0e17 27bb bb02 21ba
00000030: 2cd1 733c e5ea 35bc 0230 b13b 1b90 583b
00000040: 7a3f 16bc aaf7 36bb 6aab 493b 8bb6 b0bc
00000050: cb25 6b3c 4f4e f9bb 7374 8ebc 530f 71bc
00000060: b67f 14bb f20d 20bc 6211 353c 3a16 183a
00000070: bed4 a73c fd2a 013c 6655 9e3c cd54 423c
00000080: e633 b6bb f85e a3bc 98fe b23c 1809 d53b
00000090: d961 ab3b 9165 4dbc 22bb 843b 75af b4b9
000000a0: 69c4 1bbc d1c7 883b 7969 c63b 82ec 65bb
000000b0: 6eb2 16bc 4318 0abb f617 b8bb bff4 10bd
000000c0: 129b f8bc ca8c 1fbb ed28 b0bb ca24 c73c
000000d0: 6f9c 5d3b 3a3a 82bb cf4e 0cbd 26ab 24bc
000000e0: 6360 963b a55a 593b 3cf2 3abc 2b04 70bc
000000f0: af37 2dbc e4f8 683c 3bba e8bb 8b51 81bc
00000100: f426 393c 4a5f 4abc f9e0 763c 2fcb bbbb
00000110: 0d8b e5bc e135 2b3c de02 91bc 5217 69bc
00000120: 40bb b539 7c54 883b a6be ff39 7405 84bc
00000130: e615 443a 26e6 00bc 1e6e eebc ae3e 40bc
00000140: 7331 fd3c 138c 103c d9d8 ff3b 0918 20bc
00000150: d6b3 a7ba 7ad8 033c 99ba 75bb 449f 993c
00000160: 99fc 0b3b ff67 aa3c e706 c73b 66cc 4dbc
00000170: 7246 5abc 7ad6 cb3c 9478 f2bb e77e 4cbb
00000180: 0bfa 13bc e1c9 1b3c 96e6 49bb b088 883c
00000190: 558a c4ba 24a6 9c3c eb31 c5bb 71aa 0d3d
000001a0: b0ee 14bc d215 bbbc 4b5c 633b f26e 4a3c
000001b0: 5190 583b 2f17 c23a afda 0b3b 4040 88bc
000001c0: 7f77 48bc ff90 4b3c 1bcf b33b c2e2 e1bb
000001d0: 2173 39bb f742 89bc 163f e6bb 9457 fdbb
000001e0: 5ced c739 11af a03b bf3f 60bc dfca ea3b
000001f0: 148f 76bb 3722 1cbc 0a0d 75bc 6612 65bc
-0.0043478077 0.0035455914 0.004349417 0.0044687707 0.0061553917 -0.0207177 -0.0081268605 -0.028846696
0.012349074 -0.008368285 -0.002549592 -0.00061420695 0.014881413 -0.0111033665 0.0054073343 0.0033044878
-0.009170407 -0.0027918615 0.0030772337 -0.021571418 0.014352272 -0.007608212 -0.017389512 -0.014713126
-0.002265913 -0.00976895 0.011051508 0.0005801652 0.020487186 0.007883784 0.01932783 0.011861038
-0.005560386 -0.019942746 0.021849915 0.006501328 0.00523017 -0.012536422 0.0040506283 -0.00034463
-0.009507277 0.0041742106 0.006055054 -0.0035083597 -0.009197814 -0.002107159 -0.0056180907 -0.035389658
-0.03034738 -0.0024345391 -0.0053759725 0.024309535 0.0033815166 -0.0039742263 -0.034254845 -0.010050571
0.004589127 0.00331656 -0.011410292 -0.014649431 -0.010572358 0.014219496 -0.0071022785 -0.015785953
0.011300791 -0.01235182 0.015068286 -0.0057310085 -0.028020406 0.010449857 -0.017701562 -0.014226751
0.00034662522 0.004160462 0.00048779434 -0.016115882 0.000748007 -0.007867372 -0.029105242 -0.011733694
0.030907368 0.008822459 0.0078078327 -0.009771355 -0.0012794684 0.0080472175 -0.0037495254 0.018752702
0.0021360277 0.020801542 0.006073821 -0.012560939 -0.0133224595 0.024882544 -0.007399628 -0.003120357
-0.009031783 0.009508581 -0.0030807606 0.01666674 -0.001499484 0.01912219 -0.0060179136 0.034586374
-0.009090111 -0.022837553 0.0034692462 0.012355553 0.0033045004 0.0014807935 0.0021340062 -0.0166322
-0.012235521 0.0124247065 0.0054873354 -0.0068934867 -0.0028297382 -0.016755564 -0.0070265634 -0.0077313874
0.00038133084 0.004903682 -0.013687073 0.0071652974 -0.0037621902 -0.009529642 -0.014956722 -0.013981437

arith.constant2 f4 [1, 1, 128]
00000000: 52dd 6a3f 4634 683f d670 5f3f d551 653f
00000010: 3d67 533f 2e7a 503f 691c 723f 0645 633f
00000020: ddfa 663f f518 663f 6318 763f 04e8 6c3f
00000030: 93df 5e3f 868a 633f 82c4 703f 297c 6d3f
00000040: 5651 5b3f 7e18 773f bd57 6d3f 3711 6a3f
00000050: f4c5 5d3f 4373 673f 1858 6b3f 8820 773f
00000060: c6df 673f ec17 563f 6dc5 683f 6f19 613f
00000070: e574 7d3f 5314 663f 38f0 6a3f 8aba 633f
00000080: 9c05 6e3f 96d4 5f3f 8e2e 6a3f 2e0e 593f
00000090: ef85 6f3f 002d 5d3f dd19 673f 6919 603f
000000a0: e79d 683f e9ad 673f f446 753f 07d5 613f
000000b0: 7e5b 713f 84b4 773f c46d 743f 8a31 6d3f
000000c0: 443b 6e3f b9f1 763f 44b5 613f ade5 733f
000000d0: 74a9 623f 6afc 5c3f 97a8 6d3f 6486 593f
000000e0: c4ca 6c3f 6b91 733f 1340 713f b91a 6b3f
000000f0: c6ea 643f 9855 5f3f b5e8 643f fff6 5e3f
00000100: ef02 6f3f 8c99 653f 6e7d 6b3f 2d05 583f
00000110: 2eaf 603f 6eff 713f 68c1 6b3f 9528 683f
00000120: d0eb 643f b3ec 653f b18f 593f 3828 643f
00000130: dd4e 633f f0f9 4e3f a6cd 6d3f 0636 693f
00000140: 310e 6f3f c4f9 713f a54e 643f ce8f 6d3f
00000150: 18bb 613f db7e 563f 0b36 713f 587b 733f
00000160: 2a93 6a3f c20b 5b3f 1659 613f b3de 623f
00000170: 4c86 6c3f 65c6 6a3f b6c3 6d3f 3f33 683f
00000180: e731 6f3f c45a 723f 4515 713f 9d3a 5a3f
00000190: 4f58 5f3f 47c8 693f 631e 703f 61de 733f
000001a0: 50c4 673f 86c1 6a3f 6620 653f afa4 583f
000001b0: b738 613f 844e 6f3f e5f7 623f b2c3 783f
000001c0: 7123 6b3f 9086 6b3f 3aff 593f 6d31 643f
000001d0: 8937 6e3f 722e 753f 2d6e 733f 2f7e 693f
000001e0: 5106 6f3f 76b4 6a3f f2f0 653f 0576 6a3f
000001f0: 9199 743f dae5 6e3f af14 563f 5b05 6c3f
0.9174396 0.9070476 0.8728155 0.8957799 0.82579404 0.8143643 0.945746 0.88777196
0.90226537 0.8988183 0.9613096 0.9254153 0.870599 0.88883245 0.9404985 0.9276758
0.85670984 0.9652175 0.92712003 0.9143252 0.8663018 0.9041025 0.91931295 0.96534014
0.90575826 0.8363025 0.9092625 0.87929434 0.9900649 0.8987476 0.91772795 0.8895651
0.9297731 0.87433755 0.91477287 0.8478726 0.9356374 0.8639679 0.9027384 0.8753877
0.9086594 0.9049974 0.9581139 0.8821568 0.9428023 0.9675982 0.9547999 0.92653716
0.9305918 0.9646259 0.88167214 0.9527233 0.88539815 0.86322653 0.9283537 0.8497069
0.92496896 0.95143765 0.94238394 0.9183765 0.89420736 0.8723998 0.8941758 0.87095636
0.9336385 0.8968742 0.91988266 0.843829 0.87767303 0.9453038 0.9209199 0.90686923
0.8942232 0.898143 0.8498488 0.8912387 0.8879221 0.80850124 0.9289192 0.9109806
0.9338103 0.9452174 0.891825 0.92797554 0.8817611 0.83787316 0.9422309 0.9511008
0.91630805 0.85564816 0.8802656 0.8862106 0.9239242 0.91708976 0.92876756 0.90703195
0.9343552 0.9466975 0.9417308 0.85245687 0.87244123 0.91321224 0.93796366 0.952612
0.90533924 0.91701543 0.8950256 0.8462629 0.87977165 0.9347918 0.8865951 0.9717361
0.91850954 0.920022 0.8515507 0.8913792 0.9305349 0.95773995 0.9508999 0.91208166
0.93369013 0.9168161 0.8982078 0.91586334 0.95546824 0.93319476 0.8362531 0.9219567

arith.constant3 f4 [1, 1, 128]
00000000: 49ee 89bc 9071 6b3d cf92 7e3d 1103 b13d
00000010: 4c85 113e fc83 263d f712 343d 198e 90bb
00000020: 5bf6 1a3d d3b1 3e3d 147b fdbc b5ad 1dbd
00000030: ebd6 273d f508 743d 7e9c dabc 1cdc 88bc
00000040: c8a7 d9bd 27db e0bb b800 313c 5d29 943c
00000050: 16bc fa3d 9eb7 8abd 996b ccbc 0841 7fbb
00000060: dd63 b1bc 3d69 ce3c 8ca6 633c 0115 93bc
00000070: 67bc 723b a97f a93c a44d 26bd 433f d2bc
00000080: 6a7b 4dbd d76e 8b3d c383 bb3c c38e 0c3e
00000090: 2a01 293d bcf0 de3c 5b4e 36bd 4b35 e03c
000000a0: c435 c5bc c6a7 353d 1b44 213b 2d50 1fbd
000000b0: be61 c3bb 73e5 c93c 12ee 2c3d 8586 483d
000000c0: 10a8 bc3b 0e36 27bd 1d66 ccbd 14dd f4bc
000000d0: 3e98 ac3c e0b5 50bd 7009 8a3b 0fd8 94bd
000000e0: 7264 b53c 9237 e8bc 965d 8bbc 3ffc 113d
000000f0: 2d49 ebbb d1b1 2dbc c712 09bd 4cac 33bc
00000100: 6098 c7bb dff0 af3c 1cdd 763b cf94 4c3d
00000110: a72d f83c 58d3 47bd c136 2b3d c59c 14bd
00000120: 40f9 9bbd af3d 1cbd be5b 6b3d 532d 97bb
00000130: cfe7 b7bc b9c0 b3bc ad9e c6bc 680b a3bd
00000140: 069c 113d 7a46 bf3c ac4d 2cbc c0c4 7b3b
00000150: 685e ba3d cabc cf3b de17 353c 3f2a b43c
00000160: 6275 6e3d 92a6 bbbc 3ce4 953d 3de8 97bd
00000170: 852d 06bc bea1 eabb a764 d53b 67ae f73c
00000180: d6c3 c9bc c439 dabc 85d7 29bd 9937 b83d
00000190: 2ecf 7c3b 27e4 3bbd 9bf2 7dbc bfe5 683d
000001a0: 05ae 083d 040f 7c3c f6dd 75bc a00c 893b
000001b0: 7358 2fbd 101e 13bd 9284 babb b518 f7bb
000001c0: dfe9 b3bc 8b08 f7bc 03f5 143c 9589 6bbd
000001d0: 9a8d 923a 4344 86bc aa4a 293d 6145 94bd
000001e0: 8185 02bc 4c9d 33bd aa45 86bd bc98 11bd
000001f0: 09e8 0cbd 52dc 02bc f6e5 08bd a89e d6bc
-0.016837256 0.05748135 0.062151726 0.08643163 0.14211005 0.040653214 0.0439634 -0.0044114706
0.0378326 0.046556305 -0.030942477 -0.038495738 0.040976446 0.059578855 -0.02668595 -0.016706519
-0.10627705 -0.0068620625 0.010803394 0.01808613 0.12242906 -0.067733034 -0.02495365 -0.0038948674
-0.021654064 0.025196666 0.013894688 -0.017954351 0.0037038566 0.020690756 -0.040601388 -0.025664931
-0.050166525 0.068082504 0.022889977 0.13726334 0.041260876 0.0272144 -0.04450832 0.027369162
-0.024073489 0.044349454 0.0024607244 -0.03889482 -0.0059625795 0.024645543 0.04221923 0.048956413
0.0057573393 -0.040823035 -0.09980414 -0.029890575 0.021068688 -0.0509547 0.004212551 -0.072677724
0.022142623 -0.02834681 -0.017012399 0.03564095 -0.007180354 -0.010601477 -0.033465173 -0.010966372
-0.0060911626 0.021477161 0.0037668413 0.049946602 0.030295206 -0.048785537 0.041800264 -0.03628232
-0.076159 -0.038144764 0.05746054 -0.0046135574 -0.022449402 -0.021942483 -0.024245584 -0.0796116
0.035549186 0.023349036 -0.010516565 0.0038416833 0.09100038 0.006339644 0.011053054 0.0219928
0.058217414 -0.022906575 0.07318923 -0.07417343 -0.008189564 -0.0071603945 0.006512243 0.030234529
-0.024629515 -0.026638873 -0.0414653 0.089949794 0.0038575637 -0.04587188 -0.015499736 0.056859728
0.033369083 0.015384439 -0.015006533 0.004182413 -0.04280896 -0.03591734 -0.005692073 -0.007540787
-0.021962104 -0.03015544 0.0090916185 -0.057504255 0.0011181117 -0.016389972 0.04133097 -0.072397955
-0.0079664 -0.043851182 -0.06556256 -0.03554605 -0.034400973 -0.007987099 -0.033422433 -0.0261987

arith.constant11 f4 [38]
00000000: f750 e0bb 9856 1c3d c899 3e3c d919 9a3b
00000010: 0b0d 8aba c6e3 9ebd bc6c 213b f377 ab3c
00000020: 87a3 653c 2d78 203d 0f9d 3d3c f9be 14bd
00000030: 97c5 6ebd 7761 1bbc c0c3 553c eacc 133c
00000040: 396a 9c3c 41f2 533d 3855 66bd 315d 3c3b
00000050: 928c a93b b3b9 d83c ac26 3fbd db2d e1bb
00000060: 570c d73b de98 203d 1263 bdbc 4b5b e6bc
00000070: 969b e1bc a933 093b ae25 45bd d99f 7fbc
00000080: d424 783b a82a ffbc 4c02 a83b d4d0 7c3d
00000090: 8ae8 843c a686 e83c
-0.0068455893 0.03816852 0.011633344 0.0047027883 -0.0010532452 -0.07758288 0.002463146 0.02093122
0.014016039 0.03917711 0.01157309 -0.03631494 -0.058293905 -0.009483687 0.013047159 0.009021023
0.01909362 0.051744703 -0.056233615 0.002874207 0.005174228 0.026455736 -0.04666774 -0.0068719215
0.0065627503 0.039208286 -0.02311853 -0.028119704 -0.02754001 0.0020935333 -0.048131637 -0.0156020755
0.0037863748 -0.03114827 0.005127227 0.06172259 0.016224165 0.028384518

arith.constant12 f4 [256]
00000000: cc57 0ebd c13a 33bd d01f 6dbd 194e 09bd
00000010: 4244 e0bc bd94 e9bc 9348 91bd 6cc6 23bd
00000020: 38a7 7ebd ffbf 42bd 753f b6bd bf07 eabc
00000030: d91f e2bc 81b9 14bd 8e7d 7fbc f675 6abd
00000040: 104c 87bd b88c 5dbd b0b4 fabc ec1a dbbc
00000050: 43dc 11bc 5611 77bc 12b4 88bd b9db 0cbd
00000060: b343 60bd 548d cdbc 1cb8 a7bc 4eab 7dbd
00000070: fea5 a0bc 2f48 bdbc 6e0d 2bbc 1f8c f5bb
00000080: 5dd1 97bd eca8 b0bc e182 99bd b159 76bd
00000090: 49c7 e1bc 6cb5 04bd 87c3 24bc 75ae 25bd
000000a0: af79 0dbc 21ff 60bd 56be eebc e399 55bd
000000b0: 3a69 3ebd d7e1 1abd 61c5 61bd 0ce1 9bbd
000000c0: bd9f a9bd a63e bfbc b2a9 02bd 636e 85bd
000000d0: b527 8bba 1a2a 8abd d273 3bbd f0df b8bd
000000e0: 7984 8ebc 359d 34bd 63ba 6abd 7f73 0dbd
000000f0: 4fb3 0abd 8927 afbc d9b7 f9bc eadf 30bd
00000100: 9fba 40bd ca64 bebc 2750 1dbc c3ce 3cbc
00000110: 10ff 44bd 8058 56bd cef2 9dbd 2f5b 2fbd
00000120: a50e 4cbd 2fe9 17bd 0aef a1bd d096 3dbc
00000130: 071a 41bd 8d75 14bd 9cba f9bc 83fc 3ebd
00000140: 4dcf 0dbd 21af a5bd 80fb 52bd bdb5 80bd
00000150: 94e5 52bd a8c5 0abd e3cb 22bd 09f1 92bd
00000160: 5689 a8bc 5b22 27bd 1bb2 38bd b351 4cbd
00000170: ce32 37bd 32c6 22bc 2f62 03bd f089 a4bd
00000180: ffb0 21bd 2584 07bd 291a 58bd 3afd 4dbd
00000190: 0ed0 00bd 7583 80bd 6c15 92bd 5755 87bd
000001a0: daf6 65bd a2ed 47bd b3c9 abbc 2198 2bbd
000001b0: 4b39 5ebd f407 2ebd eb9a 70bd f693 07bd
000001c0: 2838 41bd 0c84 82bc 245a 19bd 7539 d0bd
000001d0: f169 3cbd c743 26bd 4040 bbbc fa90 8cbd
000001e0: 6ddb 31bd c7fd 7abd 55be ecbc cb6c 08bd
000001f0: 47f0 86bd df29 90bc 92c8 dbbc fe77 fdbc
00000200: 7831 b7bc 531e 81bd 6375 3fbd f42b 99bd
00000210: efd8 50bd 9196 c2bc 351b 7ebd 1ea8 01bd
00000220: 2ec1 a6bd d0de 21bd 6358 42bc 0314 0abd
00000230: 9688 7ebd 212c 58bc 116f ebbc 4efb 5fbd
00000240: f634 b1bb f4ee dcbc 1287 c1bb dac3 2dbd
00000250: 406d 85bd 4f2d a5bd c79a ccbc 1ab7 92bd
00000260: b686 95bb 9b66 a6bc fb1c b0bc 7dc8 16bd
00000270: 2683 04bd 4cec 40bd 5eda 62bd cdf8 83bd
00000280: 754e 1cbc 8f1a a3bd 6f6b 87bc 258e 41bd
00000290: 64d5 01bd 5bbf 02bd a685 c1bb 0812 8cbd
000002a0: b2df 0dbd 53bd 64bd 304c 78bd 9158 3cbd
000002b0: b2ca acbc f49a 15bd 5847 6cbd 0e19 86bd
000002c0: da74 9bbd 2ac3 3fbd f1cf 1fbd 88d1 36bd
000002d0: a70d 34bd 2d19 e1bc 88ec 46bd 83b8 9dbd
000002e0: ed2e 72bd 89dd bebc 9407 36bd a920 63bd
000002f0: 01b2 48bd 8885 3fbd 19de 43bd 4127 d6bc
00000300: 273c e0bc 191a 37bd 414a 3fbd 8b04 e4bc
00000310: 7d1c d7bd 2206 abbd 1d4b 41bc c4ab 3bbd
00000320: 8e25 0ebd 9ebf 6cbd 054b 31bc f965 d4bc
00000330: 6aa6 4ebd 33be 6bbd 48f9 1bbd c9a9 11bd
00000340: a27a dfbc 16fc e6bc 4497 62bd 83cd bdbc
00000350: 2849 29bd bc68 42bc 67fe 45bd d7ec a8bc
00000360: d8ac 87bc b0a9 76bd f4f5 8cbd 35a0 6ebd
00000370: 44a3 5abd 1c1c c3bc 5f22 3abd 1c20 52bd
00000380: b4e7 66bc 8f32 37bd 2b92 a7bd f845 dcbc
00000390: 926d 8abc a0fc 57bd f9af 37bd 9b90 60bd
000003a0: c9b4 04bd 932f e4bc 7353 6dbd 1bb0 2abd
000003b0: 1785 8bbd f4c2 1bbd ce4b 46bd b978 aabc
000003c0: 79d1 85bb 2fa2 80bd 352d fabc 8234 09bd
000003d0: d96d d3bc e660 97bd ba4d 2abd d6fc 0abd
000003e0: fcae 8fbd 07eb 92bd 8e61 36bd 270f 80bd
000003f0: 0429 30bd 8e17 73bd 5d3b 71bd 55cc 87bc
-0.0347517 -0.043757204 -0.057891667 -0.033521745 -0.027376298 -0.028513307 -0.070939206 -0.03998415
-0.06217119 -0.047546383 -0.08898822 -0.028568147 -0.027603077 -0.036309723 -0.015593899 -0.057241403
-0.06606305 -0.054089278 -0.030603737 -0.026746236 -0.008902612 -0.015079817 -0.06674971 -0.03438923
-0.054752063 -0.025091805 -0.020473532 -0.061930947 -0.019610401 -0.023105709 -0.010440214 -0.0074935104
-0.0741298 -0.021564923 -0.07495666 -0.06014413 -0.027560847 -0.03239958 -0.010056383 -0.04044958
-0.008634969 -0.05493081 -0.029143494 -0.05214871 -0.04648707 -0.037813034 -0.055119876 -0.07611284
-0.08282421 -0.023345303 -0.031900115 -0.06515195 -0.0010616692 -0.067463115 -0.04576475 -0.09027088
-0.017397152 -0.044095237 -0.05730666 -0.034533974 -0.03386241 -0.021381157 -0.030483173 -0.04318229
-0.047052976 -0.02324142 -0.009601629 -0.011523905 -0.04809481 -0.052330494 -0.07712327 -0.04281157
-0.049818654 -0.037087616 -0.07906921 -0.011571601 -0.047143962 -0.036244918 -0.03048449 -0.046627533
-0.034621526 -0.08090044 -0.05150938 -0.06284664 -0.051488474 -0.033879906 -0.039745223 -0.0717488
-0.0205733 -0.04080425 -0.04509173 -0.049882602 -0.044726186 -0.009934949 -0.032076057 -0.08034122
-0.039475437 -0.033085007 -0.052759323 -0.050290324 -0.031448416 -0.062750734 -0.07132992 -0.06608074
-0.05614362 -0.04881061 -0.020970201 -0.04189313 -0.054253858 -0.042488053 -0.05874149 -0.03310009
-0.047172695 -0.015932105 -0.03743948 -0.10167209 -0.04599947 -0.04059198 -0.022857785 -0.068635896
-0.04342215 -0.061277177 -0.028899351 -0.033306878 -0.06588798 -0.01759809 -0.026829038 -0.030941006
-0.022362456 -0.06304612 -0.046742808 -0.074790865 -0.050988134 -0.023753436 -0.062037665 -0.03165447
-0.08142315 -0.03951913 -0.011861893 -0.03371049 -0.062141977 -0.013194115 -0.028739484 -0.054683022
-0.0054079248 -0.02696941 -0.005905994 -0.042423107 -0.065149784 -0.080652826 -0.024976147 -0.0716383
-0.004563178 -0.020312598 -0.021498194 -0.036812294 -0.032351635 -0.04710035 -0.055384032 -0.06443939
-0.00954019 -0.0796405 -0.01653072 -0.0472547 -0.031697646 -0.031920772 -0.0059058247 -0.06839377
-0.03463716 -0.055844616 -0.060619533 -0.0459829 -0.021092746 -0.036524728 -0.057685226 -0.065477476
-0.07590647 -0.046816982 -0.039016668 -0.04463342 -0.043958332 -0.027477825 -0.048565418 -0.077012084
-0.059126783 -0.023298996 -0.04444082 -0.05545107 -0.048997883 -0.046758205 -0.04781923 -0.026141765
-0.027372433 -0.044702623 -0.046701673 -0.027834198 -0.105034806 -0.08350779 -0.011797694 -0.045818105
-0.034703784 -0.057799928 -0.010821109 -0.02592753 -0.050451674 -0.057554435 -0.03807953 -0.03556231
-0.027280156 -0.028196376 -0.05532004 -0.023169285 -0.041329533 -0.011865791 -0.04833832 -0.020620747
-0.01656191 -0.06022042 -0.06882849 -0.058258254 -0.05337836 -0.023817115 -0.045442935 -0.051300153
-0.014093328 -0.04472595 -0.08182176 -0.026888832 -0.01689795 -0.052731156 -0.044845555 -0.054825407
-0.032398973 -0.027854716 -0.05794091 -0.041671854 -0.06812494 -0.03802772 -0.048412137 -0.020809518
-0.004083809 -0.06280934 -0.030539135 -0.03349734 -0.025809215 -0.07391529 -0.041578032 -0.03393253
-0.070157975 -0.07173734 -0.04452663 -0.0625289 -0.043007866 -0.059348635 -0.058894504 -0.016576925

arith.constant13 f4 [128]
00000000: 6cdc 0c3c 4454 033d 3ef2 33bc fb21 283d
00000010: 73fa 76bb 2454 2ebc 78dc 8a3c b4bf a83c
00000020: 6bec 63b9 3929 df3b 39dd 153b b3cc 4b3b
00000030: 7c60 693c 98ce 97bc 484c 01b9 51da 27bc
00000040: 05cd 0b3b df2d 4c3b 1676 bf3b 2046 083b
00000050: 8425 fabb 9f7d ca3b 8321 c5bc eff8 8dbc
00000060: 5abf 91bc d5b9 d6bb 8832 a63c a206 bd3b
00000070: 63e0 b33b 7388 2bbc f48b 573b 10c6 5d3c
00000080: 36be aebb e8a2 7ebc 2cab 723a 2ac2 cbbb
00000090: c4a9 01bc a6e8 bc3c 394b 8fbb f28c 4d3c
000000a0: 9098 85bc 08fa 12bb c9db 98bc d9cd 1b3c
000000b0: 7b02 babb 266e 113c cc3f 923a b437 cabc
000000c0: a133 05bc 5a05 e6bb 6b69 043c 6ceb 873b
000000d0: de21 603c 426b ceba f00b c5bc 6c9b 31bc
000000e0: daa7 273b 4222 d9bb 24a6 0d3c 893d 0dbd
000000f0: b50c 96bc 3712 303c 9758 bbbc 2319 5b3b
00000100: 10fd 7f3c 70bf 0cbc cc1b 303c 189c 913c
00000110: 9c98 053b 3507 283b dacd 06bd ede8 893c
00000120: f469 1dbc 2765 95bc 9149 02bd 1318 c53a
00000130: bc3a 223c 170d c9bb 72bc 1abc 380c e03b
00000140: 791f 9d3c 868b 08bc cd11 e5bb 4867 4dbc
00000150: 9f72 223c 1f39 70bb 7f82 3abd 2ab2 ac3c
00000160: ed37 7b3c 727a 563c 0df7 9e3b 1aa8 0fbc
00000170: b165 34bc aeea 7d3c 4cde 19bb 491b 9b3c
00000180: 1e6b d33c 1cdc d13b c711 8fbc 8acd 213d
00000190: aaad f3bb a03c e53c 5fa9 41bb b86b ca3c
000001a0: 20f5 c8ba 1e43 debc d4c0 6a3a 7edd fc3b
000001b0: 28b9 a2bc 368a 8ebc dae9 6f3c f0a6 463c
000001c0: 2165 30bb 63fa bc3c d90c cfbb 2313 a3bc
000001d0: a33d 823c 4a4e 2ebb 4b16 e6bc caca 64bc
000001e0: 77df 823c 97e5 d73c 9940 82bc 4e3b 6bbc
000001f0: b928 a5bc ed5f b53c 5c93 f9bb 0234 d73b
0.008597475 0.032062784 -0.010983048 0.04104803 -0.00376859 -0.010640178 0.01695083 0.020599224
-0.0002173648 0.006810334 0.0022867455 0.0031097352 0.014244195 -0.018531129 -0.00012330816 -0.010244922
0.0021331918 0.003115527 0.0058429344 0.002079375 -0.0076338667 0.006179526 -0.024063831 -0.017330615
-0.017791439 -0.0065529146 0.020287767 0.005768613 0.0054893955 -0.010469544 0.0032889815 0.013535991
-0.0053327335 -0.01554177 0.0009257074 -0.0062182145 -0.00791401 0.023060154 -0.004372981 0.012545811
-0.016308099 -0.0022426862 -0.01865949 0.009509527 -0.005676565 0.008876359 0.0011157929 -0.024684764
-0.008129985 -0.007019681 0.008081774 0.0041479375 0.01367995 -0.0015748518 -0.024053544 -0.010840278
0.0025582225 -0.0066263983 0.008645568 -0.034482513 -0.018316606 0.01074653 -0.022869391 0.003343173
0.0156243 -0.008590564 0.010748815 0.017774627 0.0020385152 0.0025639061 -0.03291116 0.0168347
-0.009607781 -0.01823671 -0.03180844 0.0015037082 0.009901699 -0.0061355936 -0.009444343 0.006837394
0.019180046 -0.008334046 -0.0069906474 -0.012536831 0.009915023 -0.003665514 -0.045534607 0.021081049
0.015333158 0.013090717 0.004851228 -0.008768106 -0.011010573 0.0154978465 -0.0023478447 0.018933909
0.025807913 0.006404413 -0.017464532 0.039502658 -0.007436474 0.02798301 -0.0029550416 0.024709567
-0.0015331842 -0.027131613 0.0008955125 0.0077168336 -0.01986368 -0.017399888 0.014643157 0.012124762
-0.0026915746 0.023068612 -0.00631867 -0.019906586 0.015898531 -0.0026596957 -0.028086802 -0.013964364
0.015975697 0.026354594 -0.015899943 -0.014357401 -0.02016102 0.022140468 -0.0076164436 0.006567479

arith.constant14 f4 [128]
00000000: b421 7abb ce09 e9bc 721e 04bd c22b 76bc
00000010: ccf9 1dbd 8a25 49bc 081a 313c 1779 013c
00000020: d2a0 bd3c 4a8e 943b 1cf5 a1bc bb3d 7ebc
00000030: d1d0 533c 8b70 383c a541 983a 4748 b8bb
00000040: 62f0 8e3b 6074 c3bb 912e cc3a 5ae4 37bd
00000050: 2ec2 5cbc 49ce 6cbc a08d f1bb cbd7 1fbd
00000060: 9ba9 c2bc aed1 f63b 3c14 2d3d 9744 fb3a
00000070: 7ccb f3bc 9f32 a53c f550 aabc 3d3d 843b
00000080: 1912 23bd f9c7 79bc 9289 2cbc 7ca2 573c
00000090: 9e26 a9bc 5582 06bc 48c4 5dbc d481 0abb
000000a0: 9c3f 11bd 92a0 f73c 0fc1 ac3c 9a4f 303d
000000b0: aead 07bb 0ac0 80bd 0686 2fbd a108 06bc
000000c0: 2376 29ba 65fa 89bc 915e ca39 0456 f23b
000000d0: 29e4 b3bc 44d3 093d d1b6 06bc 763a f4bb
000000e0: e598 db3c 3e83 6dbc 35a6 f0bc 31d3 22bc
000000f0: 4f71 cabc 79ba c93b 222e 30bd 8664 f8bb
00000100: 84d2 b6bc 2f02 753b e858 9cbc b2f7 343d
00000110: 002a 12bc ed74 74bd 70ed f7bc 0ac8 1dbc
00000120: 3645 06bd b44e 9c3c 0abe 883c f7c7 93bd
00000130: 7ae4 873c 9c3e 3c3c f94f ce3c e112 29bc
00000140: a21f 1cbd 9c41 9dba 2a52 55bd 812f b9bc
00000150: 8ad4 3c3c 3838 db39 84ec d7bc d71f 64bc
00000160: 0cf7 69bb e8ac 07bd 3d12 28bc 1102 333b
00000170: deed 993c 20a1 823c cd97 e5bc 5eca 7f3b
00000180: 98c2 ebbc b1bc 973c 1161 9e3c 7be6 27bd
00000190: 9777 6d3b 792a 8e3c 28f5 05bd 6a60 a3bc
000001a0: c7ea 96ba 3f4a 973c 52f9 203b 4714 cd3a
000001b0: 5361 95bb fc3b d93a c9a9 49bc 74ee aa3c
000001c0: 1dc1 c13b 484e c83c c07b e43c fcef bbbc
000001d0: 73f9 33bc ef85 383a 80ff 92bc 7113 a9bc
000001e0: 7540 cabc c304 24bd 081f 9cbc 1d39 82bb
000001f0: 5ab1 00bd e738 7c3c ecaf 5fbd 3493 9bbc
-0.0038167061 -0.028447058 -0.032255597 -0.015025081 -0.038568303 -0.012277016 0.010809429 0.007902405
0.023147974 0.0045335637 -0.019770198 -0.015517647 0.012928204 0.011257301 0.0011616243 -0.0056238505
0.004362152 -0.0059648007 0.0015577843 -0.044895507 -0.01347403 -0.014453479 -0.0073716193 -0.039024156
-0.023762515 0.00753232 0.042255625 0.0019170222 -0.029760115 0.02016574 -0.020790556 0.0040356205
-0.03981218 -0.015245431 -0.010530846 0.013161298 -0.020648297 -0.0082097845 -0.013535567 -0.0021134512
-0.035461053 0.030227933 0.021088151 0.043044664 -0.0020702886 -0.062866285 -0.042852424 -0.008180768
-0.0006464442 -0.01684303 0.000385989 0.007395508 -0.021959381 0.033648744 -0.008222298 -0.007453258
0.026806304 -0.014496623 -0.029376129 -0.009938047 -0.024712233 0.0061562625 -0.043012746 -0.0075803427
-0.022317179 0.0037385335 -0.019085363 0.044181533 -0.008921146 -0.05968182 -0.030264586 -0.009630213
-0.03278085 0.019080497 0.01669218 -0.07215875 0.016588438 0.011489537 0.025184618 -0.0103194425
-0.038116105 -0.0011997703 -0.05208031 -0.02260566 0.011525283 0.0004181282 -0.026357897 -0.013923607
-0.003570023 -0.03312388 -0.010258255 0.0027314464 0.018790182 0.015945971 -0.028026486 0.0039030532
-0.028779313 0.018522592 0.019333394 -0.040991288 0.0036234611 0.017354237 -0.032704502 -0.019943435
-0.0011514061 0.01846802 0.002456267 0.0015646302 -0.004558721 0.0016573663 -0.012308546 0.020865656
0.0059129135 0.02445139 0.02789104 -0.022941582 -0.010984766 0.00070390006 -0.017944098 -0.020639153
-0.024688939 -0.040043604 -0.019057766 -0.0039740936 -0.031419136 0.015394426 -0.05461113 -0.01899109

arith.constant15 f4 [128]
00000000: faa4 d3bc c664 8b3c d03b 3dbd f586 10bb
00000010: eeb7 2abd 5182 c7bc b027 17bd bc3a 873c
00000020: 9ebe 39bb a507 afbc 90ad 1bbc e975 063d
00000030: 8043 95bc 37b5 1bbd bc32 8d3c 6ad3 24ba
00000040: ed56 4b3d 0445 debb aa28 8e3c 6548 793b
00000050: 61ea 45bd 4f1b 093d 0ec7 cabc dd48 bbbc
00000060: e251 f3bc f5c9 99bc 7e06 993b 5a07 7c3c
00000070: 5198 d0bc f860 07bd 8f07 063c ce3e 433d
00000080: bdaf 403c ee5a c0bc b609 8bbc db42 dfbc
00000090: f1ea eabb 4cc9 94bc 660d 0d3d 82a8 ccb9
000000a0: 69d0 043d d192 3ebc 8f9c c0bb 1cc8 18bb
000000b0: 449b 1bbb 346f 583c f1a1 acbb 8414 53bd
000000c0: 5475 04bc 182c 77bb 8456 edb9 e5fa 793c
000000d0: 65e0 67bc 4013 3a3c 25b5 c33b fb5f 4f3c
000000e0: ce11 033c 0bce 873c dbef 443c 4f02 6ebd
000000f0: 56d1 efbc b8e4 73bc ca4c 4d3c 1aaf 63bb
00000100: 80a5 e93b 77c5 12bd d180 083b fd96 b53c
00000110: 8fd8 df3b 8369 013d 49b0 6fbd aaf2 2d3d
00000120: 2fb9 003d 1a90 b43a 3511 63bd 030f d6ba
00000130: be57 8c3b e16f 753c 2aef b4bc b56d b03c
00000140: 5ea8 bc3c ced4 16b9 14ac c93c 98fd 67bd
00000150: 0795 6abc 31aa 02bd 813d 22bd c212 e6bc
00000160: 0613 ca3c 13d5 133d b76c 41bd 0dd0 7d3c
00000170: a5c6 b23c b54a c93c ad66 ea3c a863 0fbc
00000180: a1fd d6bc 610e 703d f789 f7bb ad36 143d
00000190: 509a d9bc 79f4 883c cc7d 9d3c a3b7 293d
000001a0: 9d84 1cbd a720 3fbd a503 47bb d36d 2abd
000001b0: bf3f cabc 3a91 cdbc d2f8 503c 4f57 af3c
000001c0: d8cb a7bb 8dc6 fe3b 3187 8c3b 5540 0a3c
000001d0: 7094 4bbb ad03 54bc 58e5 81bc 3f87 993a
000001e0: 263d 4c3c d284 db3d e6d7 a83c 8105 6a3c
000001f0: b6fc a1bc daee c93c d4fe a63c 5c86 813c
-0.025835503 0.017015826 -0.04619962 -0.0022053097 -0.041679315 -0.024354132 -0.036903083 0.016507499
-0.0028342376 -0.02136595 -0.00950183 0.03282729 -0.018220663 -0.038014617 0.017236106 -0.00062876067
0.049643446 -0.0067831296 0.017353375 0.0038037535 -0.048319224 0.03347331 -0.02475312 -0.022861892
-0.02970213 -0.018773058 0.0046699634 0.015382612 -0.025463255 -0.03305146 0.008180513 0.047667317
0.011760649 -0.023480859 -0.016972404 -0.027253559 -0.0071691205 -0.018162392 0.034436606 -0.0003903546
0.032425318 -0.011631683 -0.0058780382 -0.0023312634 -0.0023743669 0.013210107 -0.0052683284 -0.051533237
-0.008084614 -0.003771549 -0.00045268622 0.015257572 -0.014152621 0.011357129 0.005972522 0.012657161
0.00799985 0.016577741 0.012020077 -0.05810767 -0.029274624 -0.014886074 0.012530515 -0.003474182
0.007130325 -0.03583285 0.0020828734 0.022166723 0.0068312357 0.031594764 -0.058517728 0.04246775
0.031426605 0.0013775856 -0.05543633 -0.0016331378 0.0042829206 0.014980287 -0.022086699 0.021536687
0.023029502 -0.0001438439 0.024618186 -0.05663833 -0.014317757 -0.03190059 -0.039609436 -0.028085116
0.024667274 0.036091875 -0.04722282 0.015491498 0.021823237 0.024571756 0.028613413 -0.008751787
-0.026243987 0.058607463 -0.0075542885 0.036184955 -0.02656284 0.016718136 0.019225024 0.041434895
-0.038212407 -0.046662 -0.0030367163 -0.041608643 -0.0246886 -0.025093663 0.012754636 0.021403937
-0.0051207356 0.007775134 0.004288577 0.0084381895 -0.0031063817 -0.0129403295 -0.01585643 0.001171328
0.012465751 0.10718693 0.02061076 0.014283539 -0.019773822 0.024650026 0.020385183 0.015811138

arith.constant16 f4 [4, 32]
00000000: 9c0e 9f38 4b56 e2b8 6fa5 3bb7 8008 db37
00000010: ce54 89b7 69f3 cbb7 9213 bcb8 4f95 0c39
00000020: e258 bcb8 6fac bf38 7289 c0b5 0887 84b8
00000030: aeab 7738 8b12 ebb8 90b4 4ab6 522d 7d39
00000040: 8ab1 7db6 0d38 dcb8 0df2 6eb8 bc5b aa38
00000050: 95f0 d2b7 9e8e 61b8 6251 b1b8 8a87 87b8
00000060: 9906 9538 9669 06b8 3a38 1c39 faaf 2537
00000070: 1c18 e138 037d 19b7 06f9 9538 9095 0db9
00000080: 732e a4b8 3139 a6b7 94ad 2bb8 bff1 c9b8
00000090: a0cf 7537 5cef 8d38 8cd7 dcb6 4824 ab37
000000a0: 17da 1537 9b91 3137 36cd 1fb8 30b7 89b6
000000b0: 72dc 93b8 dfb0 aeb7 9ead d1b7 4955 f8b7
000000c0: 1459 cb38 50cc 7038 d187 2337 1f75 3a37
000000d0: ff94 ee36 476f 31b8 a66e 03b8 0e99 1bb8
000000e0: 7058 4936 7494 b0b7 999a 4d38 5176 2fb8
000000f0: ec67 4f38 6302 4c38 35c9 33b5 4bb3 9f37
00000100: 6041 bbb7 2e8f 6137 7d30 56b8 112c 5f38
00000110: 7356 81b8 548f 65b7 3574 84b8 5628 50b8
00000120: ef23 2cb8 4134 bdb8 3aaf 4e37 d70d bcb8
00000130: c84e cc38 d584 ad34 b910 90b7 8d7a 10b8
00000140: 818f 4fb8 b4ce 6538 35e9 c535 91e0 f236
00000150: f38c e2b7 7f4f be37 2131 88b7 5d55 9238
00000160: 849d b137 2b5f d538 fa84 4437 8ebe b0b8
00000170: 5daa ab38 034f a5b6 5e19 74b8 f909 7737
00000180: 2758 6138 44bc 84b7 023b 87b7 61cf 99b7
00000190: 4474 cfb8 749d 97b7 9ce5 a738 9217 f9b8
000001a0: d624 feb5 b68f dc36 2517 b538 af2f e7b8
000001b0: 67b7 2837 c780 49b9 3073 ab38 d919 0637
000001c0: 1573 3ab8 194e 40b9 17ff d0b7 4e46 0738
000001d0: 0af4 03b8 a0a4 f3b7 adc2 2037 3c97 1b38
000001e0: 7143 1eb8 dd51 bbb8 c679 9139 209e 3838
000001f0: 3fa0 4637 9803 af38 844a 42b9 a9a4 8038
7.584432e-05 -0.00010792593 -1.1184587e-05 2.6110793e-05 -1.6371163e-05 -2.4312832e-05 -8.968184e-05 0.00013407062
-8.981094e-05 9.139708e-05 -1.4345117e-06 -6.319402e-05 5.904928e-05 -0.00011209127 -3.0205447e-06 0.00024144843
-3.780328e-06 -0.00010500858 -5.696905e-05 8.1233185e-05 -2.514598e-05 -5.3777003e-05 -8.4551764e-05 -6.462548e-05
7.1061026e-05 -3.2046424e-05 0.00014898265 9.875739e-06 0.00010733327 -9.148617e-06 7.151258e-05 -0.00013502524
-7.828781e-05 -1.9815374e-05 -4.0931234e-05 -9.6294556e-05 1.4651479e-05 6.767988e-05 -6.581604e-06 2.0401683e-05
8.93187e-06 1.05839235e-05 -3.809967e-05 -4.104244e-06 -7.0505674e-05 -2.0824778e-05 -2.4995588e-05 -2.9603618e-05
9.6963864e-05 5.741074e-05 9.747179e-06 1.1113733e-05 7.110298e-06 -4.2303724e-05 -3.1335883e-05 -3.7097423e-05
3.0002811e-06 -2.1049964e-05 4.901979e-05 -4.1833442e-05 4.944943e-05 4.8639613e-05 -6.697549e-07 1.9037767e-05
-2.232258e-05 1.3444382e-05 -5.1066734e-05 5.3208383e-05 -6.167302e-05 -1.3682835e-05 -6.315896e-05 -4.962863e-05
-4.104146e-05 -9.021955e-05 1.2319355e-05 -8.9671164e-05 9.742152e-05 3.232041e-07 -1.7173925e-05 -3.444641e-05
-4.9486294e-05 5.4790362e-05 1.4745516e-06 7.238305e-06 -2.7006934e-05 2.2686783e-05 -1.623534e-05 6.977723e-05
2.1173393e-05 0.00010174358 1.1713471e-05 -8.4278276e-05 8.185648e-05 -4.9265814e-06 -5.819776e-05 1.4724669e-05
5.372628e-05 -1.5823294e-05 -1.6120732e-05 -1.833559e-05 -9.892185e-05 -1.8073923e-05 8.0059486e-05 -0.000118776356
-1.8935195e-06 6.573241e-06 8.6350636e-05 -0.0001102382 1.0056282e-05 -0.00019216827 8.175371e-05 7.9930405e-06
-4.4453034e-05 -0.0001833964 -2.4914318e-05 3.2251985e-05 -3.1460113e-05 -2.9044517e-05 9.58207e-06 3.7095728e-05
-3.7732945e-05 -8.932103e-05 0.00027747283 4.4016284e-05 1.183903e-05 8.34532e-05 -0.00018529041 6.134186e-05

arith.constant17 f4 [4, 32]
00000000: adde e2bb 31a1 2abd decb 1dba 4a7d 05bd
00000010: bac3 9f3c ef1a f9bc 4d34 86bd da54 643d
00000020: 687d 58bd 4fc9 8f3b 483a 84bc e7fd 8bbc
00000030: 4d50 833c e5a6 0cbd ef5b a6bc 8bd0 883d
00000040: 9c44 ed3b 0ed7 70bd f50d 5bbd a685 cc3c
00000050: a115 1bbd f672 a63c 361a 91bd 8b0c d0bc
00000060: e201 a9bc 20c2 433d 5458 3a3d e95a 813c
00000070: 2d56 1abd 7298 e03c b937 98bd e8c0 22bc
00000080: 334d 15bd 4a59 c4bb 0ce3 7bbc 0a35 47bc
00000090: 751e 99bd 7c01 33bc e8fa 853b fb2c 7a3c
000000a0: 7f38 68bc 8a5e 25bc acaf 38bd 45cc 84bc
000000b0: 43d9 8e3c 24cb 21bc 125a bf3c a440 603c
000000c0: a5c5 49bc 2657 12bd 85bb babc 1e6b d13c
000000d0: c3ba 20bd a806 2f3c 0855 933c 559c 833b
000000e0: 078b abbc 60f8 37bd 6e23 2c3c 2297 32bc
000000f0: c8f7 45bb 2283 0e3d 37a5 ef3c 4053 dbb6
00000100: ca4f 16bd 2798 293d bc58 fb3c 243c 4a3d
00000110: 9c47 6f3d dd9c 86bd 6c37 523d c7d9 333d
00000120: 5765 fd3b d0e4 31bc 7087 87bd bca6 85bd
00000130: 3971 8ebc 42ee b1bd 670b b7bc 138d ab3d
00000140: 7c24 bc3c 5e03 d53c 24fa e33c aeec 36bc
00000150: 4893 03bd 3103 873c d764 2fbd acb1 01bc
00000160: ea7d 653d e55e 9dbd b306 283d d955 8e3c
00000170: d16b 213c 98c3 90bc c773 a23d 36ef 29bd
00000180: 2e78 073d a404 353c dc12 aa3c 2839 88bb
00000190: ce23 b53d ecc4 393c 3c79 cdbd f40f 953d
000001a0: 8b5f 82bd 8e7b b23c 774a 953b 85f2 103d
000001b0: fe38 ea3c 4ca8 293d e4ce 9dbd 13f3 243d
000001c0: b703 543d d6c8 e43d abbd 923d c464 a4bd
000001d0: ced3 e3bc a371 34bc df20 d63d 0b47 d3bd
000001e0: eb20 cf3d 08c6 bf3c aa1d 83bd ebdf cbbd
000001f0: 59d1 2ebd fca8 aabd 318e 853d 704a b7bc
-0.0069235177 -0.04165763 -0.0006019453 -0.032590188 0.01950251 -0.03040835 -0.06552944 0.055744983
-0.05285397 0.0043880115 -0.016141072 -0.017088844 0.016029501 -0.03433885 -0.02030751 0.066804014
0.007240845 -0.058798842 -0.053480107 0.024966072 -0.037862424 0.02031849 -0.070850775 -0.025396606
-0.02063078 0.047792554 0.045494393 0.01579042 -0.03767984 0.027416442 -0.07432503 -0.009933688
-0.036450576 -0.0059920894 -0.015373956 -0.012158642 -0.07476512 -0.010925647 0.0040887482 0.015269513
-0.014173626 -0.010093341 -0.04508941 -0.016210685 0.017437583 -0.009875093 0.023358379 0.0136872865
-0.012315189 -0.035727642 -0.022794494 0.025563773 -0.03924061 0.010682739 0.017984882 0.004016439
-0.020940317 -0.044914603 0.010506494 -0.010900291 -0.0030207504 0.034793027 0.029253585 -6.5364e-06
-0.036697187 0.04140487 0.03068196 0.04937376 0.0584179 -0.06572888 0.051322386 0.04390886
0.007733028 -0.010857776 -0.066176295 -0.06525943 -0.017387973 -0.08688022 -0.022344304 0.08376517
0.022966616 0.026002582 0.027829237 -0.011164827 -0.03212288 0.016481014 -0.042820778 -0.007915895
0.056028284 -0.07684115 0.041022014 0.01737492 0.009852366 -0.017671391 0.07932239 -0.041487895
0.033073597 0.01104847 0.020760946 -0.004157204 0.0884472 0.011338454 -0.10032889 0.072784334
-0.063658796 0.021787431 0.004555996 0.035387535 0.02859163 0.041420266 -0.07705477 0.040270876
0.051761355 0.11171119 0.071650825 -0.08027032 -0.027810957 -0.011013421 0.104554884 -0.10316285
0.101137005 0.023409858 -0.06402142 -0.09954818 -0.04268012 -0.083330125 0.065212615 -0.022374362

arith.constant18 f4 [4, 32]
00000000: 850e 96bb f292 4c3c 62c0 3a3c 62b9 cabb
00000010: 2900 283c d40d fbba bd78 0d3b 9e6c 703c
00000020: 731b 6b3c 6243 e33c 5835 fa3c b034 4d3c
00000030: fd1c c33b f080 2a3c 5ae1 85bc c38a 373c
00000040: 08b4 9ebc 7a34 f63b 1265 edbb a3eb 413c
00000050: c38b a1bb 9079 323a 8be7 5fbc ade7 99bc
00000060: b890 d03b 66a9 2c3b ec87 9d3a 4ce6 37bc
00000070: b7b0 bcbb f7b3 fabb 1873 49bb 7e96 f6ba
00000080: 50fa a4bb 20c4 50bb 9c68 b9bb 9adf 0abb
00000090: 8d38 b7bc 5caf 683c eac6 d83b 5c76 14bc
000000a0: f015 4d3b 22ca 8bbb 01af 42bc 6330 193b
000000b0: 288a cabc 6b50 1c3b 0316 a1bc 9980 373c
000000c0: d41c f53a 0fd7 5a3b db8b a7bc 15f4 1e3b
000000d0: 55b0 84bb c196 843b 5466 9b3b 8079 0b3a
000000e0: 78ff 6d3b 7a39 e83a d4c5 3a3c e3d3 a339
000000f0: 3838 e23b 3750 2bbc 66ce cdbc 872f 003d
00000100: 6376 f83b e97b e2bc 1b50 75bb 3454 363c
00000110: e655 0d3b a1de bf3c 95ad eebb 5b51 8abc
00000120: afa8 95bb 5431 17bc 2c02 063d 6162 fdba
00000130: d01c 2abc 4ef9 aabb 583f 523b ed03 9bbc
00000140: 1624 413c f601 9dba a1f2 e13b 49a8 a0bb
00000150: 15aa 9a3c 8e12 1abb 19c0 7e3a be18 a73c
00000160: 2224 f9ba d897 6f3c ac08 3e3b f64e 0f3c
00000170: 7042 9437 1b2d 3abc 3a7c 8f3b 04a9 c4bb
00000180: 5f8c 9a3c 2a44 633c 9f41 aaba 2dcb caba
00000190: 022a 85bc 1727 093c 7ca6 333c 92fa 2cbc
000001a0: 62b8 eebb 1cd0 883c 67f7 ae3c 0068 c3b9
000001b0: 8905 f4bb 850b b0bc 6223 e6ba 6b0e 573b
000001c0: ba21 8339 b37f 99bb e230 6f3b 8369 99bb
000001d0: 13b5 cebb caa6 313c 7fa8 e03c bba2 00bc
000001e0: e2f4 3a3c ff8a 6dbb 426b 2aba f57c 353c
000001f0: 8dae 493b aa4c bb3b f8d5 d33b 7ff2 8ebb
-0.0045793676 0.012486206 0.011398407 -0.00618665 0.010253944 -0.0019153901 0.0021586858 0.014674334
0.014349806 0.027742092 0.030543014 0.012524769 0.0059543834 0.010406718 -0.016342808 0.011202517
-0.019372955 0.00751358 -0.0072447145 0.011835965 -0.004929991 0.00068082754 -0.013666044 -0.01878723
0.006364908 0.0026346087 0.0012018657 -0.011224341 -0.0057583707 -0.007650848 -0.0030738767 -0.0018813161
-0.0050347224 -0.003185518 -0.0056582224 -0.0021190406 -0.022365833 0.014201965 0.0066155093 -0.009061422
0.0031293593 -0.0042660395 -0.0118825445 0.0023374788 -0.024724081 0.0023851644 -0.019663816 0.011200094
0.0018700608 0.0033392345 -0.02045243 0.002425437 -0.0040493407 0.0040462916 0.004742423 0.0005320534
0.0036315601 0.0017717325 0.011399705 0.0003124765 0.0069036745 -0.010456136 -0.025122833 0.031295326
0.007582472 -0.027646976 -0.003743178 0.011128474 0.0021566092 0.023421587 -0.007283876 -0.016884496
-0.004567228 -0.009228069 0.032716915 -0.0019331687 -0.010382846 -0.0052177077 0.0032081213 -0.01892277
0.011788389 -0.0011978734 0.0068953787 -0.0049028737 0.01887993 -0.0023509595 0.0009717956 0.02039754
-0.0019007961 0.014623605 0.0028996868 0.008746853 1.7673912e-05 -0.011363293 0.0043788226 -0.0060015935
0.018865762 0.013871232 -0.0012989527 -0.0015471928 -0.016255382 0.008371136 0.010964986 -0.0105577875
-0.0072851637 0.016700797 0.021358205 -0.00037270784 -0.007446949 -0.021489868 -0.0017558152 0.003281499
0.00025011395 -0.0046844124 0.0036497642 -0.0046817674 -0.006308207 0.010842988 0.027424095 -0.007851298
0.011410924 -0.0036246178 -0.0006500968 0.011077155 0.0030774206 0.005715926 0.006464716 -0.004362404

arith.constant23 f4 [128]
00000000: d2f4 80bc 58af 70bd fc85 b9bc ad7f 753b
00000010: 3b26 21bc 82a4 14bc 9ec1 bebc 7b2e b7bc
00000020: 50f4 843c eb7e a63b dba0 1c3d e296 853b
00000030: 2d81 e0bc 8208 25bc eabf 84bc d801 4bbc
00000040: d159 3fbd 29f5 9bbc 3967 a13b 31bb b5b9
00000050: 28af 30bd b779 24bd 7918 9f3c d0e1 843c
00000060: 3bf4 1cbb 9de7 acbc e0c9 77bc 630c 26bc
00000070: 9210 693c 3adb c1bc 4d58 0dbc 2923 a939
00000080: 8407 273c 0a66 b1bc 90d4 ecbb 2a9f 24bc
00000090: abce 2d3c 4706 473c 974d ab3b fa4d bdbc
000000a0: 39f9 033c 073a e4bc 2a21 9c3c 9a70 7ebc
000000b0: 2aae b13a 3110 e4bb 6f99 0a3d 63b5 0fbb
000000c0: af6c 87bc 51b2 edbb 6351 e53c 7b08 40bc
000000d0: 829d 06bc 72f8 81bc 6bfd b3bc 2265 adbb
000000e0: d537 9dbc fae7 943c ebf9 9abb 76f7 60bb
000000f0: 4f4b 743b ec6a 473c 44d9 10bb 37c1 f9bc
00000100: 8ed8 54bc 620d 02bc c711 c7bc 38d8 babc
00000110: 3a17 d8bb f6cf b2bc d0b9 febc 9775 153c
00000120: 70b2 41bc 26bc 22bd 4a02 5abc be17 70b8
00000130: ef9b 39bc 9004 2e3b 780e 19bd e0f5 953c
00000140: 50a6 a7bc 8a2f 69bc ee8c d3bb bfc0 ac3c
00000150: 69d2 abbc ddd3 47bc 448d 8cbc 3abd 3cbd
00000160: 52f2 93bc ffd6 efbc 3518 0a3d 3ee2 433c
00000170: 9e04 0d3b 003f 323c 2319 c6bc b148 e73c
00000180: 9974 f53b 9421 213b 63f3 19bd 13f2 1ebc
00000190: 5a47 363c a60d 563c 7dd8 97ba deb3 723d
000001a0: 5dda bb3c 7a53 04bd 6a9b 02bc 2b73 79bc
000001b0: ae0f 89bc 591c fcbc 6dcd c5bc e051 ce3b
000001c0: 2bf6 80bb 7226 9abc 9743 a9bc 563c 193b
000001d0: 1c9b 5abd 217f 7cbd 8b15 46bb 94f6 373b
000001e0: b9bc 0bbc c99b d9bc f68d c63c ef5e c6bb
000001f0: 5f96 3fbd 675c cebb 1f9f af3c b800 cc3b
-0.01574174 -0.05876097 -0.022646897 0.0037460134 -0.009835775 -0.009072425 -0.023285683 -0.02236103
0.016229779 0.005081048 0.03823934 0.0040768245 -0.027405346 -0.010072829 -0.016204793 -0.012390576
-0.046716515 -0.0190378 0.004925635 -0.0003466248 -0.043135792 -0.04015514 0.01942085 0.016220957
-0.0023949284 -0.021106536 -0.015123814 -0.010134789 0.014225142 -0.023664106 -0.00862701 0.00032260388
0.010194663 -0.021655101 -0.007227488 -0.010047713 0.0106083555 0.012147493 0.0052277553 -0.023108471
0.008055025 -0.0278597 0.019058783 -0.015529776 0.0013555933 -0.006959938 0.033837732 -0.0021928183
-0.016531317 -0.007253923 0.02799291 -0.011720772 -0.008216264 -0.015865538 -0.021971425 -0.005291597
-0.019191662 0.018177021 -0.0047294996 -0.0034327186 0.0037276333 0.012171488 -0.0022102157 -0.03048764
-0.012991084 -0.007937761 -0.02430047 -0.02280818 -0.0065945657 -0.02182768 -0.031094462 0.009122274
-0.011822328 -0.039730214 -0.01330621 -5.724257e-05 -0.011328681 0.0026553012 -0.037367314 0.018305719
-0.020465046 -0.014232526 -0.006456009 0.021088002 -0.020974355 -0.012196508 -0.017157204 -0.046078898
-0.018059883 -0.029277323 0.033714492 0.011955796 0.0021517645 0.010879278 -0.024181908 0.028232904
0.007490706 0.0024586665 -0.037585627 -0.00970127 0.01112541 0.0130647775 -0.0011584904 0.059253566
0.022931272 -0.032306172 -0.007971624 -0.015225212 -0.01673111 -0.030775236 -0.024145806 0.0062963814
-0.0039355955 -0.01881716 -0.020662112 0.002338191 -0.05337058 -0.061644677 -0.0030225243 0.0028070556
-0.008528882 -0.026563542 0.024237614 -0.0060537974 -0.046774264 -0.0062976363 0.02143818 0.0062256716

arith.constant24 f4 [64]
00000000: 0f5d 0cbc 9506 3ebb eab8 acbb b4ed a3bb
00000010: cd6e d33a 2256 1f3c 6489 80bb e675 f4bb
00000020: 4108 9cba b483 c2bc 2f75 2bbc 2aed 49bc
00000030: e6ba 7b3a 91a3 05bb 79ad cabb 7223 69bc
00000040: 6a2c aa3b 9a69 1b3c 5055 11bb ca8a a5bb
00000050: 95cf 86bc 5883 50bc fe03 b4bb 5108 a9bc
00000060: 6963 0dbb e0ee 8fbc 30c1 ea3c 3ba3 eb39
00000070: 01f6 7b3b df14 a5bc 90a3 95ba 4da6 a1bc
00000080: 3b8b 07bc 1fdc a4bc bb10 b3bb ea03 a2bb
00000090: 9893 1bbc 666e 243b 134f 173b d39c 673c
000000a0: 0fbd 8dbb 4e5d 7ebb 2a36 7fbc 93af a8bc
000000b0: 653b 4f3a 67c6 793c 26e4 b0bc 9a6e 4fbb
000000c0: 763a 4abc 8064 a5ba cfa0 1bbc a4b8 0a3c
000000d0: 0e1e aabb 8b57 873b c710 1abc a6c9 26bb
000000e0: 7af8 75bc 94be 32bc 3a50 07bc 5442 b5bb
000000f0: 8e5c 80bb 3fff fabb 2d79 673a 85f2 e9bb
-0.008567109 -0.0028995622 -0.005271067 -0.0050027017 0.0016131044 0.0097251255 -0.0039226282 -0.0074603437
-0.0011904315 -0.023744442 -0.01046495 -0.012324611 0.000960274 -0.0020391683 -0.0061852303 -0.014229642
0.005193283 0.009485627 -0.0022176094 -0.0050519453 -0.016456405 -0.012726627 -0.00549364 -0.020633848
-0.0021574146 -0.01756996 0.028656572 0.0004494431 0.003844619 -0.020151554 -0.0011416543 -0.019732619
-0.008272941 -0.020124493 -0.005464641 -0.0049443142 -0.009495638 0.0025090217 0.0023087903 0.014136511
-0.004325516 -0.0038812938 -0.015576879 -0.020591533 0.0007905274 0.015245057 -0.021593165 -0.0031651617
-0.01234304 -0.0012618452 -0.009498789 0.008466873 -0.005191571 0.004130309 -0.009403414 -0.0025449782
-0.015012855 -0.010909695 -0.008258874 -0.0055315886 -0.0039172834 -0.0076598222 0.0008830007 -0.0071395063
